app/src/main/assets/iris.tflite (tflite, 3040 bytes, 6 tensors)

arith.constant f4 [3, 16]
00000000: 75e1 3fbf 481e 7e3e f4bd 333e 088a 843f
00000010: 8952 a13e 49ac e3bc b6f5 9bbe 4c17 d03e
00000020: 1190 f4be 3425 203e e679 d8be b825 83bf
00000030: 17b9 d2be 73c8 44bf 42f0 743e e2dc fe3e
00000040: bae9 0d3f 0437 49be d0fd 1cbd bf84 78bf
00000050: f21c 9fbe 6ffd bb3e 22a4 8fbe 82f9 64be
00000060: dab9 0bbf a486 1dbf 3c92 f9bd 7999 e5be
00000070: 9e2e eebd 3b94 dcbe a0d4 e93e b881 cd3e
00000080: fbf8 f53e 906d 9fbf 2487 593e 2c7e f5bd
00000090: 069f 64bf b2fc ac3e e1b8 423d 4084 3dbd
000000a0: 0803 923d f3c9 093f 7846 a0bd 9da8 29be
000000b0: aaeb fdbd d6b1 20bd 302a 4ebd db83 80bf
-0.74953395 0.24816239 0.1755293 1.0354624 0.31508282 -0.027792113 -0.304609 0.40642774
-0.47766164 0.15639192 -0.422805 -1.0245886 -0.41156837 -0.7686836 0.23919776 0.49777895
0.55434763 -0.19649893 -0.038327992 -0.97077554 -0.3107677 0.36716792 -0.2805491 -0.22360805
-0.5458046 -0.6153357 -0.12186095 -0.44843653 -0.11629985 -0.4308184 0.45670033 0.4013803
0.4804152 -1.2455311 0.21242958 -0.11986956 -0.8930515 0.3378654 0.047539596 -0.0462687
0.071294844 0.53823775 -0.07825941 -0.16568227 -0.12398465 -0.039232098 -0.050333202 -1.0040239

arith.constant1 f4 [16, 8]
00000000: 40b9 edbc a437 293e 0072 f6bd 18ce af3e
00000010: 44fb ed3e f643 e13e ef00 1bbd e821 a8be
00000020: 00c8 2c3e 8ee9 723c 5ca7 b63e 5ca1 b8bb
00000030: 0018 98bc 0e55 b0ba d905 3cbe ab8e 693f
00000040: a4a5 e1be f405 b7be 582e 383e 80c9 6f3c
00000050: 40c8 0bbe 8852 15be 94cd e9be 003a e13b
00000060: 0080 f73a ab2c 393e 3ce7 9f3e 917f e2be
00000070: 28a9 9dbe d012 94be ccb5 cd3e 523a d73e
00000080: 9070 a13d dd0b a23e 9050 533e c2ec a3be
00000090: b467 fcbe 3dbc c0be 946b 223f ae11 2c3f
000000a0: 4ce4 c9be 1326 07bf 24c0 813e c865 15be
000000b0: c0a4 443e 0040 f73d 06e3 003f 7686 dabd
000000c0: 209d e13e 8fcf 763e 68b5 7f3e 8ab5 983e
000000d0: fc6f ecbe 1b8c be3d f002 22bd 1417 cf3d
000000e0: f42c c43e 404e a8be 4071 d63d e05f dd3e
000000f0: 882e e03e 184f 81be 9c97 febe a001 52bd
00000100: 90c1 fbbd b051 b73d e04f 45be a0a4 9cbe
00000110: 1872 463e 2c1e e1be 9407 ba3e 44ea e2be
00000120: e4f6 8d3e 8787 ae3e c0fd e8bc 7470 c73d
00000130: 807b f8bc e897 643e 217a afbc 6445 1ebf
00000140: 105f 793e eca5 88be 2010 0cbe 285c bbbe
00000150: 5888 3d3e d087 79be f057 0dbe 00c3 f63b
00000160: f026 87bd 4d90 b8be 904c 913d 6ae5 6a3e
00000170: 40c0 56be df6c dd3e 75dd ba3e 4ad8 e4be
00000180: 4834 4d3e 5842 c03e f0d5 b03e 8a5a e5be
00000190: b02d f9bd 95f9 57bd 8021 fabe a4d6 b23e
000001a0: a00a 05be dabc 08be d885 853e 4946 04bd
000001b0: 105e 61be c184 a03d 5df3 de3e 237c a8be
000001c0: c0dd a53c db38 10be f024 edbd 6809 903e
000001d0: 702d d2bd 4114 1c3e 9538 a7be ebd1 0f3f
000001e0: 40d4 cb3d b212 e8bd 18bb 013e 3be0 51be
000001f0: e0a0 15bd 6f32 c4be bb6b 083f c34b 653f
-0.029018998 0.16525131 -0.120334625 0.34336925 0.46480763 0.43997163 -0.037842687 -0.32838368
0.16873169 0.014826192 0.3567456 -0.00563447 -0.018566132 -0.0013453083 -0.18361606 0.9123332
-0.44071686 -0.3574673 0.17986429 0.014635444 -0.13650608 -0.14582264 -0.45664656 0.006873369
0.0018882751 0.18083446 0.31231105 -0.4423795 -0.30793118 -0.28920603 0.40177763 0.42036682
0.07882798 0.31649676 0.20636201 -0.3201657 -0.4929787 -0.37643614 0.634454 0.6721448
-0.3943199 -0.5279247 0.25341904 -0.14589608 0.19203472 0.12072754 0.5034641 -0.10670178
0.4406519 0.24102615 0.24971545 0.29826003 -0.46179187 0.09304067 -0.039553583 0.10111824
0.38315547 -0.328722 0.104708195 0.4323721 0.437855 -0.25255656 -0.49725044 -0.05127108
-0.122927785 0.089511275 -0.19268751 -0.3059435 0.19379461 -0.43968332 0.36333907 -0.44319355
0.27727425 0.34087774 -0.02844131 0.097382456 -0.030332327 0.22323573 -0.02142054 -0.6182463
0.2435267 -0.26689088 -0.13678026 -0.36593747 0.18509042 -0.24368215 -0.13803077 0.00753057
-0.065992236 -0.36047593 0.07094681 0.22939077 -0.20971775 0.43247125 0.36497083 -0.44696265
0.20039475 0.37550616 0.3453822 -0.44795638 -0.12166917 -0.052728254 -0.48853683 0.34929383
-0.12992334 -0.13353291 0.26078677 -0.03229359 -0.22008538 0.07837821 0.43545046 -0.3290721
0.02024734 -0.14084189 -0.11579311 0.28132176 -0.10262573 0.15242101 -0.32660356 0.56179684
0.09952593 -0.11331691 0.12669027 -0.20495693 -0.036530375 -0.38319728 0.53289384 0.8956873

arith.constant2 f4 [3]
00000000: 91a5 843c 6886 2a3d 56a7 90bd
0.01619223 0.041632086 -0.07063167

sequential_1/dense_1_2/BiasAdd/ReadVariableOp f4 [16]
00000000: 4e33 ad3d f911 8e3e 0000 0000 b7e6 e13d
00000010: a469 823e feea 313d 1dbc 91bd 0000 0000
00000020: 0000 0000 81f8 d2bd 0000 0000 320a 1bbd
00000030: 71fe 74bd aabf 5bbd 1c2d 803d 08e3 773e
0.08457051 0.27748087 0.0 0.110303335 0.25471222 0.043436997 -0.07115958 0.0
0.0 -0.103013046 0.0 -0.03785152 -0.059812967 -0.053649582 0.06258604 0.242077

sequential_1/dense_1/BiasAdd/ReadVariableOp f4 [8]
00000000: 0000 0000 826a e3bd 0000 0000 0186 adbd
00000010: 0000 0000 8664 1ebe c22f 243e 450d 203e
0.0 -0.11104299 0.0 -0.08472825 0.0 -0.15468034 0.16033843 0.15630062

sequential_1/dense_1/MatMul f4 [8, 4]
00000000: f5aa 08bf 3cdd f0be 0083 eabe a06f 5f3d
00000010: e2e7 103f 6ebd ccbe c57b dfbe 3e91 efbe
00000020: a434 10bf cf1f 163f 1258 b2be 40fc f0bd
00000030: 8828 8e3e 28e2 91be b7dc c83d 3bda 2b3f
00000040: 0406 30be 9132 afbe ba7c 22bf cff8 053f
00000050: b797 243f d529 10bf 58d5 f0bc 7e0f 7b3f
00000060: c428 6a3e 010d 923e da68 293d 24aa b13e
00000070: ed9a 613e f3bb f53e 5fe9 81be ffc0 f1be
-0.5338586 -0.47043788 -0.4580307 0.054549813 0.56603825 -0.39988273 -0.43649116 -0.46790498
-0.56330323 0.58642286 -0.34832817 -0.11766863 0.27765298 -0.28492856 0.09807723 0.6712987
-0.17189795 -0.34218267 -0.6347157 0.52332777 0.64294 -0.5631383 -0.029398605 0.98070514
0.22867113 0.28525546 0.04135976 0.3470012 0.22031756 0.47994956 -0.2537336 -0.47217557
